Layer (type)                 Output Shape              Param #   
=================================================================
in1 (InputLayer)             (None, 2, 16, 16, 16)     0         
_________________________________________________________________
conv1_1 (Conv3D)             (None, 32, 16, 16, 16)    1760      
_________________________________________________________________
bn_1_1 (BatchNormalization)  (None, 32, 16, 16, 16)    128       
_________________________________________________________________
prelu_conv1_1 (PReLU)        (None, 32, 16, 16, 16)    131072    
_________________________________________________________________
conv1_2 (Conv3D)             (None, 32, 16, 16, 16)    27680     
_________________________________________________________________
bn_1_2 (BatchNormalization)  (None, 32, 16, 16, 16)    128       
_________________________________________________________________
prelu_conv1_2 (PReLU)        (None, 32, 16, 16, 16)    131072    
_________________________________________________________________
max_pooling3d_1 (MaxPooling3 (None, 32, 8, 8, 8)       0         
_________________________________________________________________
conv2_1 (Conv3D)             (None, 64, 8, 8, 8)       55360     
_________________________________________________________________
bn_2_1 (BatchNormalization)  (None, 64, 8, 8, 8)       256       
_________________________________________________________________
prelu_conv2_1 (PReLU)        (None, 64, 8, 8, 8)       32768     
_________________________________________________________________
conv2_2 (Conv3D)             (None, 64, 8, 8, 8)       110656    
_________________________________________________________________
bn_2_2 (BatchNormalization)  (None, 64, 8, 8, 8)       256       
_________________________________________________________________
prelu_conv2_2 (PReLU)        (None, 64, 8, 8, 8)       32768     
_________________________________________________________________
max_pooling3d_2 (MaxPooling3 (None, 64, 4, 4, 4)       0         
_________________________________________________________________
flatten_1 (Flatten)          (None, 4096)              0         
_________________________________________________________________
dr_d1 (Dropout)              (None, 4096)              0         
_________________________________________________________________
d1 (Dense)                   (None, 256)               1048832   
_________________________________________________________________
prelu_d1 (PReLU)             (None, 256)               256       
_________________________________________________________________
out (Dense)                  (None, 2)                 514       
=================================================================

data
[[[[ 1.6636536  1.4055743  1.1858039 ... -0.7123427 -0.7123427
    -0.7123427]
   [ 1.7450463  1.5834211  1.3646603 ... -0.7123427 -0.7123427
    -0.7123427]
   [ 1.6303092  1.4004761  1.2521532 ... -0.7123427 -0.7123427
    -0.7123427]
   ...
   [-0.7123427 -0.7123427 -0.7123427 ... -0.7123427 -0.7123427
    -0.7123427]
…
__________________________________________________________________________________________________
leaky_re_lu_12 (LeakyReLU)      (None, 128, 16, 16,  0           batch_normalization_12[0][0]     
__________________________________________________________________________________________________
add_4 (Add)                     (None, 128, 16, 16,  0           leaky_re_lu_10[0][0]             
                                                                 leaky_re_lu_12[0][0]             
__________________________________________________________________________________________________
conv3d_13 (Conv3D)              (None, 256, 8, 8, 8) 884992      add_4[0][0]                      
__________________________________________________________________________________________________
batch_normalization_13 (BatchNo (None, 256, 8, 8, 8) 1024        conv3d_13[0][0]                  
__________________________________________________________________________________________________
leaky_re_lu_13 (LeakyReLU)      (None, 256, 8, 8, 8) 0           batch_normalization_13[0][0]     
__________________________________________________________________________________________________
conv3d_14 (Conv3D)              (None, 256, 8, 8, 8) 1769728     leaky_re_lu_13[0][0]             
__________________________________________________________________________________________________
batch_normalization_14 (BatchNo (None, 256, 8, 8, 8) 1024        conv3d_14[0][0]                  
__________________________________________________________________________________________________
leaky_re_lu_14 (LeakyReLU)      (None, 256, 8, 8, 8) 0           batch_normalization_14[0][0]     
__________________________________________________________________________________________________
spatial_dropout3d_5 (SpatialDro (None, 256, 8, 8, 8) 0           leaky_re_lu_14[0][0]             
__________________________________________________________________________________________________
conv3d_15 (Conv3D)              (None, 256, 8, 8, 8) 1769728     spatial_dropout3d_5[0][0]        
__________________________________________________________________________________________________
batch_normalization_15 (BatchNo (None, 256, 8, 8, 8) 1024        conv3d_15[0][0]                  
__________________________________________________________________________________________________
leaky_re_lu_15 (LeakyReLU)      (None, 256, 8, 8, 8) 0           batch_normalization_15[0][0]     
__________________________________________________________________________________________________
add_5 (Add)                     (None, 256, 8, 8, 8) 0           leaky_re_lu_13[0][0]             
                                                                 leaky_re_lu_15[0][0]             
__________________________________________________________________________________________________
up_sampling3d_1 (UpSampling3D)  (None, 256, 16, 16,  0           add_5[0][0]                      
__________________________________________________________________________________________________
…
